…
{\colortbl;\red255\green255\blue255;\red0\green0\blue0;}
{\*\expandedcolortbl;;\csgray\c0;}
\paperw11900\paperh16840\margl1440\margr1440\vieww22020\viewh11160\viewkind0
\pard\tx566\tx1133\tx1700\tx2267\tx2834\tx3401\tx3968\tx4535\tx5102\tx5669\tx6236\tx6803\pardirnatural\partightenfactor0

\f0\fs28 \cf0 #####\'a0Model architecture t4c code repo
\f1\fs24 \
\
\pard\tx560\tx1120\tx1680\tx2240\tx2800\tx3360\tx3920\tx4480\tx5040\tx5600\tx6160\tx6720\pardirnatural\partightenfactor0

\f0\fs28 \cf2 \CocoaLigature0 UNet(\
  (down_path): ModuleList(\
    (0): UNetConvBlock(\
      (block): Sequential(\
        (0): Conv2d(96, 64, kernel_size=(3, 3), stride=(1, 1), padding=(1, 1))\
        (1): ReLU()\
        (2): BatchNorm2d(64, eps=1e-05, momentum=0.1, affine=True, track_running_stats=True)\
        (3): Conv2d(64, 64, kernel_size=(3, 3), stride=(1, 1), padding=(1, 1))\
        (4): ReLU()\
        (5): BatchNorm2d(64, eps=1e-05, momentum=0.1, affine=True, track_running_stats=True)\
      )\
    )\
    (1): UNetConvBlock(\
      (block): Sequential(\
        (0): Conv2d(64, 128, kernel_size=(3, 3), stride=(1, 1), padding=(1, 1))\
        (1): ReLU()\
        (2): BatchNorm2d(128, eps=1e-05, momentum=0.1, affine=True, track_running_stats=True)\
        (3): Conv2d(128, 128, kernel_size=(3, 3), stride=(1, 1), padding=(1, 1))\
        (4): ReLU()\
        (5): BatchNorm2d(128, eps=1e-05, momentum=0.1, affine=True, track_running_stats=True)\
      )\
    )\
    (2): UNetConvBlock(\
      (block): Sequential(\
        (0): Conv2d(128, 256, kernel_size=(3, 3), stride=(1, 1), padding=(1, 1))\
        (1): ReLU()\
        (2): BatchNorm2d(256, eps=1e-05, momentum=0.1, affine=True, track_running_stats=True)\
        (3): Conv2d(256, 256, kernel_size=(3, 3), stride=(1, 1), padding=(1, 1))\
        (4): ReLU()\
        (5): BatchNorm2d(256, eps=1e-05, momentum=0.1, affine=True, track_running_stats=True)\
      )\
    )\
    (3): UNetConvBlock(\
      (block): Sequential(\
        (0): Conv2d(256, 512, kernel_size=(3, 3), stride=(1, 1), padding=(1, 1))\
        (1): ReLU()\
        (2): BatchNorm2d(512, eps=1e-05, momentum=0.1, affine=True, track_running_stats=True)\
        (3): Conv2d(512, 512, kernel_size=(3, 3), stride=(1, 1), padding=(1, 1))\
        (4): ReLU()\
        (5): BatchNorm2d(512, eps=1e-05, momentum=0.1, affine=True, track_running_stats=True)\
      )\
    )\
    (4): UNetConvBlock(\
      (block): Sequential(\
        (0): Conv2d(512, 1024, kernel_size=(3, 3), stride=(1, 1), padding=(1, 1))\
        (1): ReLU()\
        (2): BatchNorm2d(1024, eps=1e-05, momentum=0.1, affine=True, track_running_stats=True)\
        (3): Conv2d(1024, 1024, kernel_size=(3, 3), stride=(1, 1), padding=(1, 1))\
        (4): ReLU()\
        (5): BatchNorm2d(1024, eps=1e-05, momentum=0.1, affine=True, track_running_stats=True)\
      )\
    )\
  )\
  (up_path): ModuleList(\
    (0): UNetUpBlock(\
      (up): ConvTranspose2d(1024, 512, kernel_size=(2, 2), stride=(2, 2))\
      (conv_block): UNetConvBlock(\
        (block): Sequential(\
          (0): Conv2d(1024, 512, kernel_size=(3, 3), stride=(1, 1), padding=(1, 1))\
          (1): ReLU()\
          (2): BatchNorm2d(512, eps=1e-05, momentum=0.1, affine=True, track_running_stats=True)\
          (3): Conv2d(512, 512, kernel_size=(3, 3), stride=(1, 1), padding=(1, 1))\
          (4): ReLU()\
          (5): BatchNorm2d(512, eps=1e-05, momentum=0.1, affine=True, track_running_stats=True)\
        )\
      )\
    )\
    (1): UNetUpBlock(\
      (up): ConvTranspose2d(512, 256, kernel_size=(2, 2), stride=(2, 2))\
      (conv_block): UNetConvBlock(\
        (block): Sequential(\
          (0): Conv2d(512, 256, kernel_size=(3, 3), stride=(1, 1), padding=(1, 1))\
          (1): ReLU()\
          (2): BatchNorm2d(256, eps=1e-05, momentum=0.1, affine=True, track_running_stats=True)\
          (3): Conv2d(256, 256, kernel_size=(3, 3), stride=(1, 1), padding=(1, 1))\
          (4): ReLU()\
          (5): BatchNorm2d(256, eps=1e-05, momentum=0.1, affine=True, track_running_stats=True)\
        )\
      )\
    )\
    (2): UNetUpBlock(\
      (up): ConvTranspose2d(256, 128, kernel_size=(2, 2), stride=(2, 2))\
      (conv_block): UNetConvBlock(\
        (block): Sequential(\
          (0): Conv2d(256, 128, kernel_size=(3, 3), stride=(1, 1), padding=(1, 1))\
          (1): ReLU()\
          (2): BatchNorm2d(128, eps=1e-05, momentum=0.1, affine=True, track_running_stats=True)\
          (3): Conv2d(128, 128, kernel_size=(3, 3), stride=(1, 1), padding=(1, 1))\
          (4): ReLU()\
          (5): BatchNorm2d(128, eps=1e-05, momentum=0.1, affine=True, track_running_stats=True)\
        )\
      )\
    )\
    (3): UNetUpBlock(\
      (up): ConvTranspose2d(128, 64, kernel_size=(2, 2), stride=(2, 2))\
      (conv_block): UNetConvBlock(\
        (block): Sequential(\
          (0): Conv2d(128, 64, kernel_size=(3, 3), stride=(1, 1), padding=(1, 1))\
          (1): ReLU()\
          (2): BatchNorm2d(64, eps=1e-05, momentum=0.1, affine=True, track_running_stats=True)\
          (3): Conv2d(64, 64, kernel_size=(3, 3), stride=(1, 1), padding=(1, 1))\
          (4): ReLU()\
          (5): BatchNorm2d(64, eps=1e-05, momentum=0.1, affine=True, track_running_stats=True)\
        )\
      )\
    )\
  )\
  (last): Conv2d(64, 48, kernel_size=(1, 1), stride=(1, 1))\
)}